2025-03-19_pca_dimensionality_reduction/models/20250318_1914_convolutional_autoencoder_model.pth (torch, 623190 bytes, 23 tensors)

encoder.0.weight f4 [4, 1, 3, 3]
00000000: 2df4 023f bff3 193f 2ede da3e 3088 583f
00000010: e408 5b3f 200d 083f 18c0 9fbd e3c0 8f3e
00000020: 37dc febd 9bd0 80be ebc9 6ebc 3dd7 b1bd
00000030: db2a 943e 07be fe3c efb7 843e c734 15be
00000040: bde2 d33d 8060 1ebd df6b 05be 730b 2bbe
00000050: 6514 84bd 173e 6e3d e393 1fbc 8c76 02be
00000060: fdd8 f23d 054b 353d 7129 443e 2076 113e
00000070: 06c8 d3bd 6ee0 49bd 4c98 aa3e 2964 10bd
00000080: 9ca0 54be 0734 1dbe e49e c5bd c4cf 6d3d
0.5115383 0.6013755 0.42747635 0.84582806 0.8556044 0.5314503 -0.07800311 0.28076848
-0.124443464 -0.25159153 -0.014574508 -0.086836316 0.28938946 0.031096471 0.2592158 -0.14570914
0.10345981 -0.03866625 -0.13029431 -0.16703586 -0.064492024 0.058164682 -0.009739849 -0.12740535
0.118577935 0.044260997 0.19156434 0.14205217 -0.10340886 -0.0492863 0.33319318 -0.03525177
-0.20764393 -0.15351878 -0.096494466 0.05805947

encoder.0.bias f4 [4]
00000000: effe 86be 4654 f3bb 0c8f eb3c 1246 f53b
-0.26366374 -0.0074258177 0.028754734 0.0074851597

encoder.2.weight f4 [32, 4, 3, 3]
00000000: 029c 8ebe 9149 2f3e eaf0 263e e2bb fb3e
00000010: 0b66 053f 146c 4ebc a848 aa3e 6785 323e
00000020: 2097 b43e ecd3 9dbd b5d9 2c3c 6de6 cb3d
00000030: f482 5d3d 1378 12be 56f4 f1be 6a15 e3bd
00000040: 5762 adbe e774 29bd 1df6 703d d313 dc3d
00000050: 35f1 dfbd 5baa 873d a0ff 553d e204 07be
00000060: 5561 aabd 322b b1bd 4a90 883e 44a3 7b3d
00000070: 5933 9c3d 809c c23d 07e3 92bc de56 783c
00000080: bb65 3ebe 196b 493e 9c48 413e 10b1 3ebe
00000090: 2e34 ac3e dc05 413e f88d 573e 2718 fbbe
000000a0: ba48 8dbf c6a6 84bf 50f0 29bf 8dc8 1bbe
000000b0: 57f3 013f 9f1a 5d3e 4618 e53d 5ca3 39be
000000c0: df5f babd 33e4 a6be fd09 06be 6647 733e
000000d0: 5681 b13d d5ab 0b3e 12be 9a3b 44ff efbd
000000e0: 3b63 31be 043b f3bc aa43 0e3e 4f0e ec3e
000000f0: c9fa f43d 2e44 533e ff16 9d3e 41e3 c83d
00000100: ed83 86bd fb35 cc3e 1248 56bd 9224 983e
00000110: 899f ce3e 22dc 8b3e 66a5 8ebe 58de 98be
00000120: 16ee 28bf cd6d 4a3d 256f a23d 378c a03e
00000130: d2e1 5f3f a973 5bbe 5f86 a0bd 11fc c3be
00000140: 0073 0dbf b21c efbe 0724 5f3d af41 423e
00000150: 81a3 96bd 5996 fb3e 1c45 1dbf d0c1 783e
00000160: 95aa 6abe 86c5 9c3e 9b6c 2d3e d4bd 653e
00000170: e5d4 2a3e ec8a c4be 1838 19bd d651 3abe
00000180: ffbc 90be 9ea3 a5b9 41c6 1bbe 3408 3a3e
00000190: ba00 b9be 5801 b4be c405 e9be 0935 f6bd
000001a0: 436e 833e 5024 8ebe a6f3 383e d5e6 adbe
000001b0: 13b5 33bf 0358 70bc 1806 0bbb bd68 3cbf
000001c0: 1fea 063f 674c 0e3d b3d3 9e3b 0d30 5a3e
000001d0: e3b6 a9be 5d17 b3be 58e4 83bd 8fab 8cbe
000001e0: c892 e0bc 2a58 073e 8049 beb9 4f47 1fbe
000001f0: 4b95 203e d9b3 1c3e cf2c b73d 7aba 173e
00000200: f8c4 423e a66c 7cbe 81a5 d93d 80fe d8bc
00000210: f473 d43a 9ae0 2cbe 4fc4 af3d 549a bc3e
00000220: ced0 bbbe ac08 2f3d dfe2 533e 7bc2 1abf
00000230: 96a3 d03e 5d35 1bbe d402 88bd 45a4 373e
00000240: a03a 4b3b d92b 143e 2ac0 673e 1540 8bbe
00000250: a797 a9be 8f82 0cbf 5a8e 883e 8e63 ae3e
00000260: 6157 e7bd e82f 16be e14d 6ebe 89ff 82be
00000270: 81fc 293e ba4a ff3c aac1 51be 96b9 ea3d
00000280: 68e3 103e 8582 89be 91f5 91bd 8767 6f3c
00000290: 3f71 653d f7f3 5f3e e2f6 833e 2589 653e
000002a0: c70f afbd 02a1 473d 6342 98be 3e69 bfbd
000002b0: c4a3 c6be 1b75 763e d5df dabd 47cf cfbd
000002c0: 18fb 793e db70 1abf 719d 06bd 2158 ae3c
000002d0: 2026 42be fbfd 4bbd c44a 9f3e 86a3 8b3d
000002e0: cb27 0d3f d35a 333e db1b 803d dfae b33e
000002f0: 8c87 51be a3f5 b4bc ffde 853d c091 61bd
00000300: 8ce9 8dbe 3193 b13c 7843 21be b449 5ebe
00000310: b2a4 19bc b89f 2ebd 6bcd 3abd 6c4d 833b
00000320: a59c 1a3e a868 b03c 4286 88be e7ab 21be
00000330: e89a a63d 6453 d8be 8ef9 9a3d fdb5 3abd
00000340: 9020 13bb abc9 93be ff71 8d3e 6f79 44be
00000350: b995 da3c 3399 31be d23b c93d ba51 02bc
00000360: 949d 5ebe 26d9 7b3e 9738 d1bc f22d 1abf
00000370: f639 acbe 35ef efbe cea2 c5be 0d04 98be
00000380: 6ffa b4be 9378 93bd 1e12 5e3d c59d 14bd
00000390: 0f67 393e 417c 67bc 6cef 0fbe c01f 22bd
000003a0: 76bf 043e 4119 b9bd de30 f5bd 29f6 193e
000003b0: 5a6b 153e 4a7e 30be 3577 4a3d 0ccf 33be
000003c0: cbec cdbd 9b1f 693e 132b a8bd 98f4 2a3d
000003d0: 35c0 f7be 8141 89bd ea41 a5be 21f0 263e
000003e0: dcf7 863e b5e0 2cbe d62a 4ebe c4b2 493e
000003f0: f1fa 923d b0da 763e 27b4 413e 4bfb dd3e
-0.278534 0.17117907 0.16302839 0.4916678 0.5210883 -0.01259901 0.33258557 0.17433701
0.3527155 -0.077064365 0.010549952 0.099560596 0.054079965 -0.14303617 -0.47256726 -0.11088069
-0.3386409 -0.041371252 0.058828462 0.10745969 -0.109346785 0.066242896 0.052245736 -0.13185456
-0.08319346 -0.08650817 0.26672584 0.061435 0.07626981 0.09502506 -0.01793052 0.0151574295
-0.18593495 0.19669761 0.18875355 -0.18622231 0.3363356 0.18849891 0.2105025 -0.49041864
-1.1037819 -1.0363395 -0.6638231 -0.15213223 0.5076193 0.21592186 0.111862704 -0.18128723
-0.09100317 -0.32595977 -0.13089748 0.23757705 0.08667247 0.13639767 0.004722365 -0.1171861
-0.1732301 -0.029691227 0.13893 0.46104667 0.11961896 0.20631477 0.30681607 0.0980897
-0.065681316 0.39884934 -0.052314825 0.297154 0.4035609 0.27316386 -0.27860564 -0.29857135
-0.6598829 0.04942112 0.079313554 0.31356975 0.8745395 -0.2143084 -0.07838129 -0.3827825
-0.552536 -0.4670158 0.054477718 0.18970369 -0.07355405 0.49138144 -0.6143358 0.24292684
-0.22916634 0.30619448 0.16935961 0.22435695 0.16682775 -0.3838724 -0.03740701 -0.1819528
-0.28269193 -0.00031593157 -0.15212347 0.18167192 -0.36133367 -0.35157275 -0.4551221 -0.120218344
0.2567006 -0.2776208 0.18061695 -0.33965173 -0.7019817 -0.014669421 -0.002121335 -0.7359732
0.5270099 0.03474083 0.004847014 0.21307392 -0.33147344 -0.34978762 -0.064400375 -0.2747464
-0.02741374 0.13217226 -0.00036294386 -0.15554546 0.15681951 0.15302981 0.089440934 0.14817229
0.1902045 -0.24650821 0.106272705 -0.026488543 0.0016208873 -0.16882554 0.08582365 0.36836493
-0.36682743 0.04273288 0.20692013 -0.60453004 0.40749806 -0.15157075 -0.066411644 0.17933758
0.0031010285 0.14469852 0.22631899 -0.27197328 -0.33123514 -0.54886717 0.26671106 0.3406033
-0.11295963 -0.14666712 -0.23271896 -0.25585583 0.16600229 0.031163562 -0.20484033 0.11461179
0.14149249 -0.2685739 -0.07126916 0.014612085 0.056016203 0.21870409 0.25774294 0.22415598
-0.08547931 0.048737533 -0.2973815 -0.09346245 -0.38796818 0.2406811 -0.10687224 -0.10146957
0.24412191 -0.60328454 -0.03286499 0.021282258 -0.18959856 -0.04980276 0.3111173 0.06818299
0.55138844 0.17515115 0.06255313 0.35094354 -0.20461863 -0.022089785 0.06536674 -0.05507064
-0.27717245 0.021676632 -0.15748394 -0.21707803 -0.009377645 -0.04263279 -0.045606058 0.004007032
0.15098818 0.021534279 -0.2666493 -0.15788232 0.08135015 -0.42251122 0.0756713 -0.045583714
-0.0022449829 -0.28864798 0.27626035 -0.19186948 0.026682721 -0.17343597 0.09825863 -0.007954055
-0.21739799 0.24594554 -0.02553968 -0.60226357 -0.3363797 -0.46862188 -0.38600773 -0.2969059
-0.35347316 -0.07200732 0.054216497 -0.036283273 0.1810572 -0.0141287455 -0.14056176 -0.03958106
0.12963662 -0.0903802 -0.11972211 0.15035309 0.14591733 -0.17235675 0.04943009 -0.17559451
-0.1005493 0.22765963 -0.08211341 0.04173717 -0.4838883 -0.06701947 -0.3227685 0.1630254
0.26360977 -0.16882594 -0.20133528 0.196971 0.071767695 0.2410686 0.18916379 0.43355784

encoder.2.bias f4 [32]
00000000: 7eb5 35be 02c3 c03e a63c 1dbc 2dd9 383d
00000010: 0c72 163e 91b4 2fbe bea7 793e 4f96 f33e
00000020: ccd9 98be d88c 5b3d 8ba2 09bd 0701 813d
00000030: 90e6 873e 254c 623d f780 97bc a612 a1bd
00000040: 5c6e 8b3d 4a0a ddbe a242 043e 4406 883e
00000050: abc3 003e 6dac f83c 2272 0b3f 1f5c d0bd
00000060: 8cdc b23e 700b 0a3d 679e 8ebe 3224 87be
00000070: a51b 3ebe a6ab 5dbe 2fca 0ebe 328c 29bd
-0.17745015 0.3764878 -0.009596979 0.04512899 0.14691943 -0.17158724 0.24380395 0.47575614
-0.29853666 0.053601116 -0.03360228 0.06299024 0.26543093 0.0552484 -0.018494112 -0.07864885
0.06808159 -0.43171912 0.12916043 0.2656728 0.12574641 0.030355657 0.5447103 -0.10173821
0.3493389 0.033702314 -0.27855226 -0.26394802 -0.18565233 -0.2164751 -0.13944314 -0.041393466

encoder.5.weight f4 [64, 1152]
00000000: 2fbd 46bd 642c a53e 5ba4 d8be b5b4 23bf
00000010: 49f0 7eba 2dc3 fabd cace 2b3f cb4c a13e
00000020: 7428 a0be 4eb6 69be c266 27bd c407 59be
00000030: a80e 163f 0e6f ad3e 7f13 0d3e cbb8 66bf
00000040: 488c 0a3f dcf5 993e f404 f13c 1625 0f3f
00000050: 4059 81bd 8a60 87be 379b 2f3f 2155 8a3e
00000060: 7cd8 533b 94e1 32bf 010f 49bf 95d9 b4be
00000070: 9e18 db3e 1210 703d 4cf6 2ebd 1ab6 8bbe
00000080: 1f9e 82bf 9ab5 2abf 175b 6c3e a0cf 803f
00000090: 758a 253e 807b 14bf 3673 dc3e 8110 6c3f
000000a0: c998 2fbd 72c4 a23d f0de aa3d 7909 abbe
000000b0: 1ab1 0f3e 777d a03e 3ebe da3a e8e3 983e
000000c0: 783c e1be 8905 41bf c655 c7be ebaf 293e
000000d0: 9eac b8be a65f 7fbe c477 22bf 2b55 09bd
000000e0: 2a6d 0cbd 093e b33d 51e1 21bf 6c24 33be
000000f0: b624 ac3e 2965 5b3e c0a2 9c3e 4eff 473f
00000100: 844e a5be 1659 093e 0a8d a83d 09fa 843e
00000110: 76fa 4f3f 86c1 e23e 238e 8cbe 1f3f 43bf
00000120: 8eb9 7cbd 6fb5 39be cc51 a53e 8281 813e
00000130: 9e2c 873d 4416 4c3e a766 3ebf 36ea 96be
00000140: d838 b6bc 8bc7 033d 5a6e 703d 61af a93e
00000150: 4eee d1be 2f5e 52bd 3c10 493f 4030 bf3e
00000160: 81af 47be 4695 25bf 3fea 8cbc f9e9 4ebf
00000170: 2e20 553e b518 e3bd 9236 ecbd e09d a93d
00000180: 3048 253e 3be4 423f 232a 0c3f 93f4 e7bc
00000190: a1db e9bc 3806 68bf 24f7 613e 95e7 143f
000001a0: f17e 883f 0d18 4a3f 0339 d3be f229 6abe
000001b0: 00ad 00be 721c ac3e e1f7 8abe afc3 843f
000001c0: 3676 4d3e c0c9 453e 7905 36bf bbb2 e43e
000001d0: 14df 4b3e b697 9e3e fe38 203e 724d a3bd
000001e0: f7fa 26bd a58b fa3d 3aae 81be b026 c23d
000001f0: 1421 153f 53c4 43be 6e4a f93b 1520 8fbf
00000200: 7fc9 1f3e f4b6 093e 6673 e03e 1a66 4bbe
00000210: 12d9 d0bc 83bf 2d3f 8293 b9be b7fe 28bd
00000220: 7312 5f3f f58c 58bf 50fa 11bb 5a80 6d3d
00000230: 6f7c 933f 9c7c 1240 95fb 9a3e fd32 b1bf
00000240: 7651 d03c 78ff 07bd 51cb 573f bee0 b43e
00000250: 5441 943e 0042 ef3d 6e41 94be 58d0 f73e
00000260: 68f0 2a3f 9ccf 623e 5f29 2abe 4d3f dcbe
00000270: 7160 55bf 6e5f 8dbe 40cf 36bf 91e0 b0bd
00000280: 82ff e1be c838 52be e52e 09bf f27b 5bbe
00000290: 7a92 2e3f 0a7d 5cbc 97d9 14bf 071f 2dbe
000002a0: 7a99 003f 7c77 e33d 24fc 3fbe 0a60 113d
000002b0: afc7 63be 2dcf 053f d50e 473c 2dac c73e
000002c0: 50e0 943f adcc 483f fc8d 7bbf 6da2 32bf
000002d0: ac0b c5bd eef0 2a3f 8198 63bf 6419 e9be
000002e0: 3841 0a3e 199c b5bc b774 c03e d99c 833e
000002f0: a8ca a8be 4ad5 e0bd 9c1c 8b3e 6e51 90be
00000300: 3235 4c3f 42bd 933e 86cc f13d 3fd4 fabe
00000310: 1a3e 3a3f 6aa2 5c3e 3d44 a53e bdbb 03be
00000320: 5207 55bd c702 15be 45a9 713f a945 293d
00000330: 676c 01be 7415 d63d db59 3bbf 0cd9 cdbe
00000340: fbcf 5f3f ecda 9fbe 681e e9bd 9cdf 03bf
00000350: 9f11 9bbf f527 ea3d f1ba 053f 0ba6 b83e
00000360: bc8d 313d 6823 a6be df48 c13e 5af3 2e3f
00000370: b696 e93b f4d3 f63d a635 17bf 067c fabd
00000380: f110 923e 7162 9a3e 27e9 bb3d 0cb7 a73e
00000390: 3ad7 11bf 1f8c b7be 590c b7bc e3b0 2c3f
000003a0: 0a31 99be b98a a3be 4d59 61bc 3cd0 f1be
000003b0: a766 f93d b265 1b3e a9cc c3be 1dfd 79be
000003c0: 6c3a 033e d33a 423f 6560 1e3f bf4d 0f3f
000003d0: d246 62bd 5fa9 49bf 44e3 983d 0fa2 773e
000003e0: f581 763f 3742 8a3f 8f28 ad3c 7505 a7bf
000003f0: 219e b7bd 7a29 d33e 6dbe 24bf 227c 28bf
-0.048520263 0.3226043 -0.42312893 -0.6394761 -0.00097251363 -0.12244258 0.6711241 0.315039
-0.31280863 -0.2282345 -0.04086948 -0.21194369 0.58616114 0.3387379 0.13776968 -0.9012572
0.541203 0.30070388 0.029421307 0.55915964 -0.06315851 -0.2644084 0.68596214 0.27018073
0.003232508 -0.69875455 -0.7853852 -0.35322252 0.4279222 0.058609076 -0.042715356 -0.2728737
-1.0204505 -0.6668335 0.23081623 1.0063362 0.16166098 -0.58000946 0.4305665 0.9221268
-0.042870317 0.07947625 0.08343303 -0.33405665 0.14032403 0.31345722 0.0016688777 0.2986138
-0.43991446 -0.7539907 -0.38932627 0.16571014 -0.36069196 -0.2493883 -0.63464 -0.033528488
-0.034283794 0.08752067 -0.6323443 -0.17494363 0.33621758 0.21425308 0.30592918 0.7812394
-0.32286465 0.1341289 0.08230026 0.25972012 0.8124155 0.44288272 -0.27452192 -0.7626819
-0.061700396 -0.18135618 0.3228897 0.2529412 0.06600307 0.19930369 -0.74375385 -0.29475564
-0.022243902 0.03217272 0.05869899 0.33141616 -0.41002125 -0.05135935 0.78540397 0.373415
-0.19500543 -0.646809 -0.017201541 -0.80825764 0.20813057 -0.11088697 -0.11533846 0.082820654
0.16140819 0.761295 0.54751796 -0.028314864 -0.02854711 -0.9063449 0.22066933 0.58165866
1.066374 0.7894295 -0.41254434 -0.22867563 -0.12565994 0.33615452 -0.27142242 1.0372218
0.20064625 0.19315243 -0.711021 0.4466761 0.19909316 0.3097512 0.15646741 -0.07973756
-0.040766682 0.12233666 -0.25328237 0.09480035 0.582536 -0.1911786 0.0076077497 -1.1181666
0.15604208 0.13448697 0.43838042 -0.19863167 -0.025494132 0.6787035 -0.36245352 -0.04125854
0.87137526 -0.84590083 -0.0022274442 0.057983734 1.1522349 2.2888556 0.30270067 -1.3843685
0.025429469 -0.03320262 0.8429461 0.35327715 0.2895609 0.116825104 -0.2895617 0.4840114
0.6677308 0.22149509 -0.16617344 -0.43017045 -0.8335028 -0.2761187 -0.7140999 -0.08636583
-0.4414025 -0.20529473 -0.5358718 -0.21434 0.68192255 -0.013457546 -0.58144516 -0.16906367
0.50234187 0.11106774 -0.18748528 0.03549198 -0.22244142 0.5226925 0.012149532 0.38998547
1.1630955 0.7843731 -0.98263526 -0.6977909 -0.09621367 0.6677388 -0.8890458 -0.45527184
0.13501441 -0.02216916 0.37589046 0.25705603 -0.32967114 -0.10978182 0.27170265 -0.28187126
0.7976867 0.2885533 0.11806588 -0.48990056 0.7275101 0.21546331 0.32278624 -0.12864585
-0.052008934 -0.1455184 0.9439891 0.0413262 -0.12639008 0.104533106 -0.73183984 -0.40204656
0.8742673 -0.31221712 -0.11382753 -0.51513076 -1.2114753 0.114334024 0.52238375 0.3606418
0.04334806 -0.32448888 0.3775091 0.68340075 0.007128562 0.120521456 -0.59066236 -0.12230687
0.2852855 0.3015323 0.0917533 0.3275684 -0.56969035 -0.3584909 -0.022344755 0.6745741
-0.29920226 -0.31941774 -0.013754201 -0.47229183 0.121777825 0.15175512 -0.3824208 -0.24412961
0.12815255 0.7587101 0.61865836 0.55978006 -0.05524332 -0.78774065 0.074652225 0.24182914
0.9629205 1.0801457 0.021137504 -1.304854 -0.089657076 0.41242582 -0.64353067 -0.6581441

encoder.5.bias f4 [64]
00000000: 9a20 9e3d 5175 e0bd 83a6 21be fe22 c4bc
00000010: 2636 a33f 97fd 033e 8b7f 6abe 3d30 2c3d
00000020: 2b09 023e 3b15 213e 5090 12be 3854 1bbf
00000030: 4de5 debd 67d9 a53d 7245 bdbd e303 8cbd
00000040: 33e9 04bf ffc2 a2be db44 26bc a467 153e
00000050: 0b76 17bd e72c 1ebf d80a ee3e 6d5d ac3d
00000060: f3c8 61be b817 c03d 2f2a 22bd 8fa7 84bd
00000070: 0016 a8bc b825 7dbe b255 3dbe cfbd 1ebf
00000080: bfee 93bb f712 5abe 439f c03e 7c90 11be
00000090: c986 19be 6c22 d1bd 84e9 54be 8380 21bd
000000a0: bd82 b83e 616b 2bbe 9776 89bd 9cb1 1dbf
000000b0: f12c c5be 1f7d 8cbd 4963 73bd 07dd 3cbd
000000c0: 6063 8ebc 4693 01bd 3a17 56be 054c 3dbf
000000d0: 0b11 1ebf d93c 4abe 81b5 1dbe 426e 4bbe
000000e0: dbf6 9ebc 46fb c33e 0df9 e7bc fb81 1ebe
000000f0: 480a b7bc 2df5 383d be4a 88bd 7e1a a1bd
0.07721062 -0.10959876 -0.15786175 -0.023942467 1.27509 0.12889706 -0.22900216 0.04203819
0.1269881 0.15730755 -0.14312863 -0.6067538 -0.108835794 0.08098107 -0.09241761 -0.06836679
-0.51918334 -0.31789395 -0.010148252 0.14590317 -0.03697781 -0.61787266 0.46492648 0.08416257
-0.22049312 0.09379524 -0.03959101 -0.06477272 -0.020518303 -0.2472142 -0.18489721 -0.62008375
-0.0045145447 -0.21296297 0.37621507 -0.14215273 -0.14992823 -0.102116436 -0.20792204 -0.0394292
0.36037245 -0.1674018 -0.06712072 -0.61599135 -0.3851085 -0.068598025 -0.059420858 -0.046109226
-0.01738137 -0.03163459 -0.20907298 -0.7394412 -0.61744756 -0.19749774 -0.1540127 -0.19866279
-0.01940482 0.38277644 -0.028316999 -0.15479271 -0.02234377 0.045155693 -0.06654881 -0.07866381

encoder.7.weight f4 [16, 64]
00000000: a944 3c3d 415d 8a3e 7806 cabd 520b c83d
00000010: 9c9f aabe 9914 46bf b4bd 8e3d 4717 a8be
00000020: f8cc eebd 9545 24bf 53e6 ac3d 4537 623d
00000030: 217f 11bd f7aa 33bf 1fad 8a3f b9e8 8c3e
00000040: 05c2 dc3c 07b1 e4be 402e fcbc 728c 00be
00000050: 90ee 6abc fd9e 05bf 3afe 4bbe 7922 ffbe
00000060: 78fc 583d 0e93 97bd 7060 4bbd b0af 39bd
00000070: 34dc 7dbd 7d19 2bbe a099 793c 206c 79be
00000080: d70f 26bc da63 4a3e aa4a 2e3e 9c47 ba3e
00000090: acdc 9a3c fbe4 e6bd 3cd5 c3be c6c3 34bd
000000a0: b3ef 51be b088 57bd f55d b33d 99de e03d
000000b0: c539 1ebd 3426 48bd ca51 12bb d659 b43e
000000c0: f1ea 89be d651 d1bd 82ae c9bd 6ec4 20bf
000000d0: b6b8 8e3f ba4c 6bbf 6c29 66bd b446 163e
000000e0: d454 03bd 0a80 abbe 96b4 e73d d84f f7bc
000000f0: 127b d53d 0f82 07be a804 fb3c 8f21 a7be
00000100: d455 f5bd 278e d5bd 8c8b afbd fc57 5fbd
00000110: 2869 eebd 085a 07be 97e1 a33c e39f ec3d
00000120: b059 02bd a86c 5abe 9504 15be d579 7ebd
00000130: 3822 5fbd 6d84 8abd ea4a 23bc 97e5 b5bd
00000140: c53a b1bd f62c c4bd b8e9 afbd 108a c7bd
00000150: 002e 47ba d43e d4bd c3cf 88be 6d11 0cbe
00000160: 4093 f53d a869 f5bd 209a c9bd 806d c03c
00000170: 8464 3bbd 2cb2 d03d ac66 713d 2de9 28be
00000180: 6610 cd3d 4007 ec3c 4016 67bc 268e d2bd
00000190: 01ee efbd b429 ac3d 322a 0cbe a484 263d
000001a0: 775e 3fbc f608 fdbd 807f da3c 0684 f4bd
000001b0: 80c9 463b 58f7 c9bc fc58 5cbd da96 c9bd
000001c0: 7fda 05be 2842 eabc be0d a33d 00f3 01bc
000001d0: 2366 a93c dd02 3dbd 50d8 b73d 64fa 9abd
000001e0: 40f5 533d 5918 7dbd 2b21 843d 6421 3a3d
000001f0: 48fb c73d 1499 e3bd 648e b13d b4a3 ffbd
00000200: f44f 30bf 7124 39bf 31d9 03be 4793 13bd
00000210: 46c5 d33e 74d0 62bf 484c a9bd c870 1d3e
00000220: 1806 47bd 00c5 bc3e 15ea 09bf c3dd a3be
00000230: 3698 163e b545 b6be c747 46bf ce88 abbe
00000240: 96b4 1fbe 27e6 8ebf 624d 9b3d 11be 673f
00000250: 3b19 cb3b 4398 1bbf c838 9abf 4662 a4be
00000260: b9e9 543e 73ac bd3d d298 d13d d5c4 97bd
00000270: 6ef0 e7bc fd2d 423d 4fb9 003e ecf4 f33d
00000280: 67e7 fd3d ed1f 28be 64f5 223f 0955 833e
00000290: a2ea 0bbf 97d1 04bd aa7d adbf c2c5 fbbd
000002a0: 28e0 59bf c878 f0bb 382b 923d f30c dfbd
000002b0: de3c 233d 282d ffbd c6a0 b13d 09ca 603f
000002c0: 2292 d0be 8fbf 3fbd 53d4 24bd a299 693e
000002d0: 9463 63bf c614 d5bd 84ae 60bd ba88 fdbd
000002e0: d158 82bd 97e2 d0be ea9e febd f377 c93d
000002f0: e5a5 b4bc 27dd 45bf f735 733d 2c5a a2bf
00000300: 848e d33e 96ab 98bf 8db0 6f3e bc6c 763b
00000310: 403e 893e 1042 29bf 8a34 163e f768 5b3f
00000320: 29be 5dbe eebd a6be 5527 4cbf 23ef c8be
00000330: d22f 283e 19ad 19be 73d4 debe 82f0 cebe
00000340: ef38 78bf b997 db3d b7fe b43d 0856 c33d
00000350: ff1b ddbd 87b4 f9bd 9382 413f 0970 46be
00000360: 706b b43e 3e8a 643e eb18 b6bd de14 d5bd
00000370: 3f47 8f3c b63a 933e ea6c 923d c741 95bf
00000380: 32f5 fdbd 7dcd eb3d d0d0 b7be dd44 b9be
00000390: f11a 3dbf 77a9 c0bd 367e de3e 1835 ff3c
000003a0: 3f0c fabe 0beb 8f3d 6f24 16be e808 cbbe
000003b0: d0dc 963e 18bd ffbc ebd6 a6bd 9ba8 833f
000003c0: 77f0 b4bf 69e7 a3bd 029e 0fbd aaa5 b2be
000003d0: 94ea 5ebf 8eb1 353d 56d2 42bd 2966 993e
000003e0: 560c aebd 167e 76be c097 603c 37e1 dfbd
000003f0: 3568 2f3d 1aad 9ebe 289c a63d 42a9 43bf
0.045963917 0.27024272 -0.09864515 0.09767784 -0.33324897 -0.7737518 0.06969777 -0.3283026
-0.116601884 -0.64168674 0.08442368 0.05522849 -0.03552163 -0.70182747 1.0834082 0.27521303
0.026947984 -0.4466631 -0.030783772 -0.12553576 -0.014339104 -0.5219572 -0.19921198 -0.49830988
0.052975148 -0.07401095 -0.049652517 -0.045333564 -0.06197758 -0.16708942 0.015234381 -0.24357653
-0.010135612 0.19764653 0.1702067 0.3638276 0.018904053 -0.11274143 -0.38248622 -0.044132017
-0.20501594 -0.05262059 0.08758155 0.10979957 -0.038629312 -0.04886456 -0.0022326582 0.3522479
-0.2693706 -0.10220687 -0.09847738 -0.6279973 1.1150119 -0.9191395 -0.056191847 0.14675409
-0.03206332 -0.33496124 0.11313741 -0.03018944 0.104238644 -0.13233207 0.030641869 -0.3264279
-0.11979261 -0.10427504 -0.08571538 -0.054527268 -0.11641151 -0.13217938 0.02000503 0.115539335
-0.031823814 -0.21330512 -0.14552529 -0.062127907 -0.054475993 -0.067635395 -0.009966591 -0.088816814
-0.086537875 -0.09578888 -0.085895 -0.0974313 -0.0007598102 -0.10363546 -0.2672101 -0.13678522
0.11990976 -0.11983043 -0.0984385 0.023489714 -0.045750156 0.101902336 0.058935806 -0.164952
0.100128934 0.02881205 -0.014104426 -0.10281019 -0.117153175 0.08406392 -0.13687971 0.04065384
-0.011680237 -0.12355225 0.026672125 -0.11939244 0.0030332506 -0.024654076 -0.0537958 -0.09843226
-0.13071631 -0.028595999 0.079616055 -0.007931471 0.020678585 -0.04614531 0.08976805 -0.075672895
0.05174756 -0.061790798 0.06451639 0.045442 0.09764725 -0.11113182 0.08669737 -0.12482396
-0.68872 -0.7232123 -0.1287582 -0.036029126 0.41361445 -0.88599324 -0.082665026 0.15375054
-0.048589796 0.3686905 -0.53872806 -0.32005128 0.14706501 -0.35600057 -0.77453274 -0.3350281
-0.15596232 -1.1163987 0.07583119 0.90524393 0.006198076 -0.6077921 -1.2048578 -0.32106227
0.20792283 0.09261408 0.10234226 -0.074105896 -0.028312888 0.04740714 0.1257069 0.119119495
0.12397652 -0.16418429 0.63655686 0.25650814 -0.54654896 -0.032426443 -1.3553975 -0.12293579
-0.8510766 -0.007338617 0.071371496 -0.10891142 0.03985297 -0.12459785 0.08673243 0.8780828
-0.4073649 -0.046813544 -0.04024155 0.22812513 -0.8882382 -0.10404353 -0.05485393 -0.12379594
-0.06364597 -0.40797874 -0.12432654 0.098373316 -0.02205176 -0.77290577 0.059377637 -1.2683768
0.41319668 -1.1927364 0.23407193 0.0037601432 0.26805305 -0.6611643 0.1466848 0.8570704
-0.21654572 -0.3256678 -0.79747516 -0.39244947 0.16424492 -0.15007438 -0.4352146 -0.40417868
-0.96961874 0.10722298 0.088376455 0.095378935 -0.107963555 -0.12192636 0.75589865 -0.19378676
0.35238218 0.2231836 -0.088914715 -0.10404371 0.017490027 0.2875573 0.0714968 -1.1660699
-0.12400283 0.11513803 -0.359015 -0.3618535 -0.73869234 -0.09407323 0.43455666 0.031153247
-0.48837468 0.07027253 -0.14662336 -0.39655232 0.29465342 -0.031218097 -0.08146461 1.0285829
-1.4135884 -0.08003122 -0.035062797 -0.34892017 -0.8707669 0.044358782 -0.047563873 0.29960755
-0.08498447 -0.24071535 0.013708055 -0.10931628 0.04282399 -0.3099144 0.08135253 -0.7643014

encoder.7.bias f4 [16]
00000000: 6b75 01bf e573 65be 052e 873e 768a 033f
00000010: ef4f a33f 5034 adbf c559 7b3f 1100 c73f
00000020: d3f8 dabe 5061 243f 9aae 013e 3faf bd3f
00000030: 3efb ae3f 0668 09be ef2e 8b3e f727 973f
-0.5056979 -0.22407492 0.26402298 0.5138315 1.2758769 -1.353159 0.9818385 1.5546895
-0.42767963 0.6421099 0.12664261 1.4819106 1.3670423 -0.13418588 0.27184245 1.1809071

encoder.9.weight f4 [9, 16]
00000000: 47ad ee3b cfca f93d 7aa4 a7bf 8cbd aabd
00000010: c179 573e 8d44 c13e 8987 0fbd 3048 ac3d
00000020: 16a5 69be ff30 21c0 8bbd f4bd 382d a9be
00000030: ecfb 723d 76bc bbbd 0b5d 86bf 13db 803e
00000040: 2c8d b23e ac35 2cbe 0cb2 02c0 0d82 34c0
00000050: 6585 59be 4298 363d eb26 b3bf edea 93be
00000060: 220b a33e 543b 8cbf 18d6 1dbe a3e3 8b3e
00000070: 6f4b a4bd dad8 08be ed49 86be 72b0 b43d
00000080: ca9e 103f 2600 343e b361 f0bd 4f26 5cbc
00000090: 3313 763e d39a 16bf 5a74 92bd 65dd 733e
000000a0: 60a4 e0be aadf c3bd b374 5bbd 5978 fd3d
000000b0: bbc5 6cbe 72cc fa3d 599d 923c f740 3fbe
000000c0: 95b0 883e db14 013e 2a0a 92bf 56ea 0ec0
000000d0: 777b 48be 53ef 133f 6159 80bf 7d9c 8cbe
000000e0: 593e b73e 26a4 8bbf f897 803d a472 513e
000000f0: a1e1 673e 2feb 47bd 6365 f0be bc27 f83d
00000100: d2b9 4abe 8d3c a83d baeb 2b3d eabf c7bc
00000110: 13c2 00bd 901e 98bd 3399 da3c 980a eebd
00000120: d7a5 af3d b7e6 253d e7aa bf3d e1c1 fa3c
00000130: 19e9 d93e 6ad3 dbbd 4edc 6f3d cfdc 92bd
00000140: f1b0 b43d a02a 9abc e1df 41bc a130 60bd
00000150: 32d6 493e ddad 81be 5c4d 21bc 242e 6fbe
00000160: 5f75 adbc 45c6 393d c0c0 49be 37a7 343d
00000170: 1483 883e aaca 753e bc5a f83d 4a3b 32be
00000180: f6bd 413e e544 923e 669f afbb 8a44 c8bd
00000190: 3617 bd3e 0706 18bf e7b3 55bb 4720 973d
000001a0: 9c56 c1bd 2e63 1ec0 3bf7 483e 9ce5 be3d
000001b0: 037f 8e3c 0b6a 8cbe ab9f 9e3e d109 283e
000001c0: 3706 943f 4b21 30bd 947e edbf 4031 bfbf
000001d0: aef3 e43d 24b2 e5bd 0b72 37bf 2fbe 0ebe
000001e0: 9930 9b3e 12f2 57bf 1e85 293e 76a9 0c3e
000001f0: 1eeb 2a3e a437 8b3c c54e d1be b292 a43d
00000200: 0e74 e93c f5a5 ca3d 9ecb 74c0 b90b a93a
00000210: a8bb 9cbd b0f0 b0be 238e 013d c695 093d
00000220: 2303 b4bc faf3 f6ba cd41 c63c a74c cb3e
00000230: 3e90 f43d e9bd b9bd 5187 2fbf 6a7b 913d
0.00728384 0.12196886 -1.3097069 -0.083369344 0.21042539 0.37747613 -0.035041366 0.08412206
-0.22816882 -2.5186155 -0.11950215 -0.33042312 0.059322283 -0.091668054 -1.0497144 0.2516714
0.3487333 -0.16817349 -2.042117 -2.8204377 -0.21242292 0.044578798 -1.3996252 -0.28890172
0.3184443 -1.0955606 -0.15413702 0.2732211 -0.080222 -0.13363972 -0.26228276 0.08822717
0.5649229 0.17578182 -0.11737385 -0.013436868 0.24030761 -0.58829993 -0.071510985 0.23814924
-0.43875408 -0.09564145 -0.05357809 0.1237647 -0.23122303 0.12246026 0.017897295 -0.18677126
0.2669722 0.12605612 -1.1409352 -2.2330527 -0.19578348 0.57787055 -1.0027276 -0.2746314
0.35789755 -1.0909469 0.06278986 0.20453888 0.22644664 -0.048808273 -0.46952352 0.12116954
-0.19797447 0.08214674 0.041972853 -0.024383504 -0.031435084 -0.07427704 0.02668438 -0.11623114
0.08576553 0.04050323 0.09358769 0.030610027 0.42560652 -0.107336834 0.05855971 -0.07171022
0.088228114 -0.018819153 -0.011833162 -0.054733876 0.19710615 -0.2532796 -0.009845104 -0.23357445
-0.021174131 0.0453551 -0.19702435 0.04410478 0.26662505 0.24003091 0.12126681 -0.1740543
0.1892012 0.28568187 -0.005359578 -0.09778698 0.3693177 -0.59384197 -0.003260845 0.07379203
-0.094403476 -2.4748034 0.19625561 0.09321138 0.017394548 -0.27424654 0.30981192 0.16409995
1.1564397 -0.0430005 -1.8554254 -1.4936905 0.11179291 -0.11215618 -0.7165839 -0.13939737
0.30310515 -0.84353745 0.16554686 0.13736519 0.16691253 0.016994305 -0.4088041 0.080357924
0.028497722 0.09894935 -3.8249278 0.001289717 -0.0765298 -0.3455863 0.031629693 0.0335901
-0.021974152 -0.0018841021 0.024201298 0.3970692 0.119415745 -0.090694256 -0.6856585 0.071036175

encoder.9.bias f4 [9]
00000000: bef6 613f 373f 34c0 95e5 3a40 b911 9f3f
00000010: e17d 5a3c 3c3c fe3e c0c6 943f d5df 0640
00000020: 5545 3940
0.88267124 -2.8163583 2.9202626 1.2427284 0.013335676 0.4965533 1.1623154 2.1074116
2.8948567

encoder.11.weight f4 [2, 9]
00000000: 7da0 62bd de9d 623f 7cde 45bd 4d4a 98bf
00000010: 1ffa 9d3d e2e3 cf3c 93a1 ef3c e161 5ebe
00000020: e7c1 3ebe da34 c2bd c821 48be a845 d53d
00000030: 0c18 843d 3da5 59bc 3721 66bd c788 0e3e
00000040: 87d9 9d3e d38c 8dbe
-0.055328835 0.88522136 -0.04830788 -1.1897675 0.077137224 0.025377218 0.02925185 -0.21717025
-0.18628655 -0.09482737 -0.19544137 0.104136765 0.06449899 -0.013284025 -0.05618402 0.13919364
0.30830023 -0.27646503

encoder.11.bias f4 [2]
00000000: fa6c 1ebf 394a 9e3e
-0.61885035 0.30916002

decoder.0.weight f4 [9, 2]
00000000: c3e5 2ebe a0b4 32bd 4488 a6bd f4f3 b2be
00000010: ea70 8a3e 5d82 8dbe 713e 773e 47d0 703e
00000020: b99e a6be f00e e73d fbe5 cbbb 2e73 c8bb
00000030: 4f45 80be 9459 47bc e089 99be 8313 40be
00000040: a8f9 b23e cad1 89bd
-0.17079835 -0.04362929 -0.08131459 -0.34951746 0.27039272 -0.27638522 0.24144913 0.23516952
-0.3254297 0.11282146 -0.006222484 -0.006117246 -0.25052878 -0.012167353 -0.29988003 -0.18757443
0.34956098 -0.06729467

decoder.0.bias f4 [9]
00000000: 9369 b0be d299 193e 3f7d 893e e28d b03e
00000010: 651a ae3f 9584 8c3f b5a4 d0bf ae6c 46be
00000020: 6144 82be
-0.34455547 0.15000084 0.26853368 0.34483248 1.3601805 1.0977961 -1.6300265 -0.19377396
-0.25442794

decoder.2.weight f4 [16, 9]
00000000: 715f 87be 492b aa3e 8e4e a8be 5004 32bd
00000010: 3536 b03d 06b5 b53d 9dc2 c7bf c194 abbd
00000020: 5551 48bc f581 00bf cb2d 193e 7e35 233f
00000030: f52f 0abf 1469 ffbd 375a 243e 6d54 9f3e
00000040: ecb1 bebe 9402 b9be 128f 95bc edac 473e
00000050: 6b0f b83e 8a6b d0bf 16b5 dabd 83ac 16bb
00000060: 2ad2 2f3e 1786 a63e a7dd e0be 1fbf 34bd
00000070: 2766 953e e331 3a3e 3137 103e eadb d93b
00000080: 38c0 bb3d eeb1 c2be 7592 44be 356c 81bd
00000090: 9031 f3bc 6c22 91bd 0b1e bbbd 13e6 4cbe
000000a0: 155d 8bbe e489 1abe 3823 0d3d 255a dfbe
000000b0: fc1a 6abe 5cd2 aebe 89b6 1d3e a54b 69be
000000c0: bbb9 f0be a4b9 f03e 42d9 ac3e 81ef 04bf
000000d0: 170d 92bd cd23 c7bc 7d27 0dbf d8a9 f9bd
000000e0: 8183 523e ef53 dcbe ca85 82be 9ff9 0bbf
000000f0: dc90 45b9 83e0 25be a953 0abe bf7c 993d
00000100: 0646 0b3f e424 b9be dc8d fbbe 57c3 bd3e
00000110: ab1b 693e 9041 ddbe 3065 43be 0522 d23e
00000120: c46b 8a3c 4300 823e fd91 fe3d a970 f03e
00000130: 0908 4abe 7e22 e8be fe4e 433f d6c7 a1bd
00000140: 77f3 c33e 5b43 e33c 31c8 d3be db72 37be
00000150: c427 583e a43a 183f bd04 133d 956f 8ebd
00000160: 7959 653e 8bc6 2c3d 7e8a 9fbe 75c9 70bf
00000170: 4f38 f5be 617a cc3e 2fd1 c53e f430 ea3d
00000180: a39c bb3e d983 82be 6f90 253d ec8c 6f3e
00000190: 22f6 933e 495e 09bf 069a c03e 4e51 61be
000001a0: d00b 6d3e 534e 0cbe 15e9 883d b4b0 36bf
000001b0: fe7a 04be a88f 65be c4d5 e83d 7ad9 99be
000001c0: 476b a73d 8a77 98be ad09 7cbe 21d6 ad3d
000001d0: 2046 02bd 3046 90bd 1934 36be 3554 09bc
000001e0: e5b7 cfbd 4d22 7ebe e232 633e 0068 a7bc
000001f0: 24e1 8bbe b3a2 b8be d79c 0abe 22c9 b8be
00000200: 40c1 84be bb41 10bd f9a0 25be 1527 443e
00000210: cbcb bc3c 7ee1 0c3f 1a5b 743e afc3 28be
00000220: dca2 88bd 6dc2 b9be 441d 8abd 42f3 7dbe
00000230: e11b 35bd 6eee 553e 79eb a5bd 10fa 07be
-0.26440004 0.3323615 -0.32872432 -0.043461144 0.08604089 0.08872418 -1.5606266 -0.08377982
-0.012226422 -0.501983 0.14958875 0.637535 -0.53979427 -0.12471214 0.16050039 0.311191
-0.3724512 -0.3613478 -0.018256698 0.1949956 0.35949263 -1.6282818 -0.10679071 -0.0022991009
0.17170015 0.32524177 -0.43919107 -0.04412758 0.291795 0.18183093 0.14083554 0.0066485303
0.09167522 -0.38026375 -0.19196494 -0.06319467 -0.02968672 -0.070866436 -0.091365896 -0.20009641
-0.27219453 -0.15091664 0.034457415 -0.43623462 -0.22861856 -0.34144866 0.15401663 -0.22782762
-0.470167 0.47016633 0.33759505 -0.51927954 -0.07131403 -0.024309063 -0.5513838 -0.12190598
0.20557977 -0.43032786 -0.25492698 -0.54677767 -0.00018841348 -0.16198926 -0.13508476 0.074944966
0.5440372 -0.36160958 -0.49131668 0.37063095 0.2276446 -0.43214083 -0.19081569 0.4104158
0.01689709 0.25390825 0.12430189 0.46960953 -0.19729628 -0.45338815 0.7629241 -0.07899444
0.38271686 0.027742079 -0.4136367 -0.17914908 0.2110892 0.5946448 0.03589319 -0.06954876
0.22397412 0.042181533 -0.3116035 -0.940574 -0.47894523 0.39937118 0.38636157 0.11435118
0.36642942 -0.25491217 0.040420946 0.23393601 0.28898722 -0.5365949 0.3761751 -0.22003672
0.23149037 -0.13701753 0.06685082 -0.7136338 -0.12937543 -0.22418082 0.113688976 -0.30048734
0.081747584 -0.297787 -0.24613066 0.084881075 -0.031805158 -0.07044637 -0.17793311 -0.008381893
-0.10142497 -0.24817772 0.22187379 -0.020435333 -0.27320206 -0.3606163 -0.13536392 -0.36090952
-0.25928688 -0.035218935 -0.16174687 0.19155534 0.023046395 0.55031574 0.23862877 -0.16480897
-0.06671688 -0.36281148 -0.06743863 -0.24799827 -0.04421604 0.20891735 -0.081015535 -0.13278985

decoder.2.bias f4 [16]
00000000: 61f7 563f 238b 453f ac34 dcbd 386f 663f
00000010: 6cbd a1be c093 153f 4f2a 39be e3e4 143f
00000020: 4496 39bf 6e1d 57bf 496e 213e 9cb9 ea3e
00000030: b1a5 90be 56c9 8ebe bd47 873f 14a2 cfbe
0.8397122 0.7716543 -0.10752234 0.90013456 -0.3158983 0.58428574 -0.18082546 0.58161753
-0.7249491 -0.8402928 0.15764727 0.45844734 -0.28251413 -0.27887982 1.0568768 -0.40553343

decoder.4.weight f4 [64, 16]
00000000: a1bb a6be 2742 3d3f 8746 87bf 7f8d a03c
00000010: 4f55 a13e 4c1e c6be 2442 493e 65fc 153f
00000020: 17c5 a7be fc24 3bbd 60c8 30be 8ee1 07be
00000030: 47bb 003e c382 22be 9de9 96bf 2407 693e
00000040: bbb5 a63e 39d5 5f3c 728f f2bf d5cf 033f
00000050: 47ca 223d b1f0 d4bf 2507 2fbe cc9f 65bf
00000060: 3f78 f8bd 0f6e 9bbf 1cd6 c03d 1d6d 46be
00000070: 34ce 6ebe aca0 e6bd 73a7 533f b8e8 a03d
00000080: 786a 33bc ed2c 5dbf d6c0 87be f3b1 e1be
00000090: b80f 223e edbb 833c 0f3e f4be 8d46 923e
000000a0: ead7 803e abe2 0abf 0cf5 48bf 336c e83d
000000b0: b109 6f3c e897 593d 8dcf 123f 5675 653e
000000c0: e2a4 633e fbea 27be d173 12bf f7db 993e
000000d0: dacd 703e 73de e73e b81d bbbc cb88 4c3e
000000e0: 07ef dabd 2539 a83e d808 533e a654 813e
000000f0: 52d7 113e 18ee 7e3e 31ac bdbe 186b 36be
00000100: c488 a13d a06c b7bd 6c2c dabe 57d9 f63e
00000110: 2e75 95bd b95e d73d 61e4 9b3e cf73 a6be
00000120: b090 7fbe 711a b7bd 1575 b93d ddc9 e5bd
00000130: 78e9 3b3e 6fc3 1a3e 6b37 493e 35ec 07bd
00000140: 7e62 133e b405 86be b2c1 95be 7ff4 74be
00000150: 303b 533d 69c1 d0be dc81 54be 4909 e4bd
00000160: 1b0f 00bd ec40 babd 36f4 d1be c4a2 043e
00000170: a8e6 9f3d f86a 28bd a20c 95be 22da 1abe
00000180: 08ff cabe c71d c7be 17c3 563d 4669 9b3e
00000190: 8907 873e ec65 993d 6313 3cbd fbc7 5a3d
000001a0: 2e52 1bbe 5caa debf 7097 35bf 806e 513e
000001b0: b041 efbc 8c3d 503d 0326 1b3f 7995 98be
000001c0: 6d6f 143f c9a5 a23f c2b2 89bf aac5 543e
000001d0: f847 653e 0987 653e e269 11be cf6d de3e
000001e0: 7f44 3cbf 3f49 cdbe df49 92bf e204 34bf
000001f0: b54c 853e 54a1 14be c128 40bf 721d 063e
00000200: 7ca8 e23d 6cbd 63bf caef 083d e3d3 e7be
00000210: 50de 23be 59c3 3a3e 70b7 ae3d 88d6 a93e
00000220: 46e7 16bd b417 88be 1296 c1bf eac7 133e
00000230: b30d 90be 4f08 bfbd 8033 ff3e 0c72 843d
00000240: b5ff f63e c582 fe3e a740 0fbf b7e7 053d
00000250: fcf5 ffbd bb25 ad3e 1a3c d13c f5a6 7bbe
00000260: a5b4 403e 78c0 a2be 813a 2d3e b261 8abe
00000270: e0ce f93d 207d 46be 32ed 183e f7f6 b0bd
00000280: 9c74 d3be 379b a73d 9f0e 503e 62c8 f43e
00000290: efa3 51be 17d2 babe cd81 edbd 5dfa 823e
000002a0: 2845 7cbf 58ff 60be 1b7b 7b3e 6a2b f93d
000002b0: 46b2 373e 2102 19be 9174 d9bd 7189 ecbd
000002c0: 6fae 013f a1fa 0bbf 23b0 a2bd 01ee c23e
000002d0: df32 aa3e 6136 0b3e d7b5 8ebd 10ad e13d
000002e0: 1c5f babf 6437 a5be 6b27 f43e 580f 3cbf
000002f0: 5010 0d3d e929 16be 17b7 cc3d 0138 c8bd
00000300: 5b28 343f d03a 32be 54ed b8bf 44c2 22bc
00000310: f20a 2cbe d148 123f c447 f43d ccf3 8abe
00000320: 76d9 a3bd edd0 b9be fc75 333e e5ce 8a3e
00000330: f4fe 08be ca56 423d b6d3 283e e801 b4bd
00000340: 1f6c 91bd 4e7f 113e 6bd6 c93d 7ae2 d6be
00000350: 5fc9 90be 8d65 a6be 4cd1 e5be 87f1 c9bd
00000360: 7116 0ebf aee0 81be b340 e13e c75d e03e
00000370: d5e3 02be 9ce7 093e f03e d33e 2b91 653d
00000380: 8652 7f3e 2109 2f3f 607d 4cbe ba4f d43d
00000390: 12e0 543d bad5 55bf 57ec 083e 085e 41be
000003a0: fd99 523e 5f9e 2fbe 4ad6 9fbe a358 c6be
000003b0: c2a6 683e 70c7 073e 4f58 ddbd 5ea3 793e
000003c0: 2030 3a3f a52e 103e 4a7b 8a3e 7cec d3be
000003d0: 4188 1cbd 52c7 cb3d bd16 033e 0112 c33d
000003e0: 67e9 6fbc 4b34 ac3e 50c9 f0be 63f2 8bbe
000003f0: cac7 4e3e 145f 00be 5546 4c3e 5cd2 02be
-0.32565024 0.73929065 -1.0568398 0.01959872 0.31510398 -0.3869499 0.19654137 0.5858825
-0.32767555 -0.045689568 -0.17263937 -0.13269636 0.1257144 -0.15870194 -1.1790043 0.2275663
0.32560524 0.013661676 -1.8950026 0.51489 0.039743688 -1.6635953 -0.17092569 -0.89696956
-0.1213231 -1.2142962 0.09415838 -0.19377561 -0.23320848 -0.112611145 0.8267738 0.078568876
-0.010950677 -0.86396676 -0.2651431 -0.44081077 0.15826309 0.016080821 -0.47703597 0.2856945
0.2516473 -0.5425212 -0.7849891 0.11348762 0.014589713 0.053123385 0.5734795 0.22408041
0.22230867 -0.16398232 -0.5720797 0.30050632 0.23516026 0.45286903 -0.02284132 0.19974057
-0.10690122 0.32856098 0.20608842 0.25259894 0.14242294 0.24895513 -0.37045434 -0.1781429
0.07887414 -0.089562654 -0.42612016 0.48212692 -0.07297741 0.10516114 0.30447677 -0.3251023
-0.24957538 -0.0894059 0.09055535 -0.11220143 0.1835078 0.15113614 0.19650047 -0.03318425
0.1439304 -0.26176226 -0.2924934 -0.23921393 0.051570117 -0.4077256 -0.20752662 -0.111345835
-0.031264406 -0.09094414 -0.4100663 0.12952715 0.07807666 -0.04111764 -0.291112 -0.15122274
-0.39647698 -0.38889906 0.052432146 0.30353755 0.26372936 0.07490143 -0.045916926 0.053413372
-0.15168068 -1.739574 -0.709342 0.20452309 -0.029206127 0.050839946 0.60604876 -0.2980154
0.5798252 1.2706844 -1.0757678 0.20778528 0.22390735 0.22414793 -0.14200547 0.43443152
-0.73542017 -0.40094945 -1.1428794 -0.7031995 0.26035085 -0.14514667 -0.75062186 0.1309717
0.11067292 -0.8896091 0.033431806 -0.45278844 -0.16002774 0.18238582 0.08531082 0.33171487
-0.036841653 -0.26580584 -1.5123923 0.1443173 -0.28135452 -0.093277566 0.4984398 0.06467065
0.48241964 0.49709144 -0.55958027 0.032691684 -0.1249809 0.3381785 0.025541354 -0.24575408
0.1881891 -0.31787467 0.16916849 -0.2702766 0.121976614 -0.19383669 0.14934233 -0.08640855
-0.41299903 0.08183902 0.20318078 0.4780913 -0.20472692 -0.3648841 -0.11597023 0.25581637
-0.98543024 -0.21972406 0.2455868 0.12166484 0.179391 -0.14942218 -0.106179364 -0.11549652
0.5065679 -0.54679304 -0.07943752 0.38072208 0.33241937 0.13594963 -0.06968277 0.11019337
-1.4560275 -0.32268822 0.47686324 -0.7346091 0.034439385 -0.14664425 0.09995859 -0.09776307
0.7037408 -0.17405248 -1.4447427 -0.009934012 -0.1680105 0.5714236 0.11927751 -0.27139127
-0.08000462 -0.3629221 0.17525476 0.27110973 -0.13378507 0.04744605 0.16487011 -0.08789426
-0.071007006 0.14208719 0.0985535 -0.41969663 -0.28278634 -0.32499352 -0.44886243 -0.09860521
-0.5550299 -0.2536673 0.43994674 0.43821546 -0.12782224 0.13467258 0.41258955 0.056046646
0.24933824 0.68373305 -0.19969702 0.10366769 0.051971503 -0.83529246 0.13371406 -0.18883526
0.20566554 -0.17150258 -0.31218177 -0.387395 0.22719863 0.13259673 -0.10807859 0.24378726
0.7272968 0.14080293 0.27047187 -0.4139136 -0.03821588 0.09950127 0.12801643 0.09524918
-0.01464305 0.33633646 -0.4702859 -0.27333364 0.20193401 -0.1253627 0.19948705 -0.12775558

decoder.4.bias f4 [64]
00000000: 99f5 1c3e 5ca4 0d3f bac6 963e de08 e7be
00000010: 2f25 7c3f 95f5 2ebe b1f8 493f 5bb7 2f3e
00000020: 4a1d 0f3f 87a6 af3e 0f0e 66be e309 583e
00000030: b9ff d2be 9b28 cd3e fee1 d2bd b5fe 04bf
00000040: 578a 5b3d 2e89 0e3f 6300 a3be 630c 1dbe
00000050: 3cf5 d8be e0aa a1bd 6da2 9f3f f6bf 7f3b
00000060: b0ee 743f e0ec cdbe 5dbf 15bf 8018 c03e
00000070: b55a 12be 3929 7bbe c3d5 62be 3d1b 78bf
00000080: f3c3 9b3e 5c5c 17bf 16eb 84bc d75f 363f
00000090: abeb 0e3f 5624 9abe 0d55 cf3d 489a 0fbf
000000a0: f6aa 20bd d485 23be 0abb 343e 1ffc 8cbe
000000b0: ed5f 5ebc c542 2f3f f69c 2d3f 6014 35be
000000c0: 1844 78be ad87 013f 4b01 4e3f 49a5 a63e
000000d0: 09f1 2d3f 0005 623e a8ef 2a3f 5eb8 193e
000000e0: c614 41be 9fa9 883e a530 d33e e992 2b3f
000000f0: 6d75 b53e 3a99 a03d 7585 763f c0ff 753e
0.15328063 0.5532892 0.2944849 -0.45123953 0.9849424 -0.1708587 0.788951 0.17159788
0.55904067 0.34306738 -0.224663 0.21097521 -0.41210726 0.40070042 -0.10297011 -0.5195115
0.053598728 0.5567807 -0.31836233 -0.15336756 -0.423746 -0.0789392 1.2471443 0.003902433
0.9567671 -0.40219784 -0.5849512 0.37518692 -0.14292414 -0.24527444 -0.22151856 -0.9691656
0.30422935 -0.59125304 -0.016225379 0.7123999 0.5582835 -0.30105847 0.10123644 -0.5609479
-0.03922554 -0.1596902 0.17649475 -0.27536103 -0.013572675 0.6846126 0.6781763 -0.17683554
-0.24244726 0.5059765 0.8047072 0.32547978 0.67945915 0.2207222 0.66771936 0.15011737
-0.1885558 0.2669191 0.4124805 0.6702104 0.3544115 0.07841726 0.9629739 0.24023342

decoder.6.weight f4 [1152, 64]
00000000: 41b1 673e c7a5 053c be21 433e 4ec4 863f
00000010: 96d1 b73c e6f1 e23d 81da f53c bf3b 3e3e
00000020: b3bb 3c3e b6f8 c13e bc94 353e 5d0e 963e
00000030: b288 053e 1af3 bd3d 2113 1fbe b9bc 823e
00000040: 9196 583e f010 2e3c 944c 5ebd 636a e3bc
00000050: aa7a 3c3d 6442 27bd 3dae cdbe 6782 153e
00000060: fc5c a2bd 217a 783e 6a16 ca3e 51b4 0f3e
00000070: 5cbb 143d 76ff e4bc 7e94 4e3d 3d7a 6a3f
00000080: 08c4 713d 302e fc3d 147e 3a3e d7bf 223f
00000090: 5dcb 893f 03f3 8a3d 3299 663e fedc a53e
000000a0: a5e0 ef3e de63 dfbc 402d 093f 4e9c c73d
000000b0: 4db9 98bd 89a7 a7bd aa09 6ebd 1fa8 1b3d
000000c0: 4dd3 1d3d 7c95 273e f7ca 3f3e 4383 9d3e
000000d0: d59a 4d3e a284 0f3e 071e d13c 4802 fb3d
000000e0: 4faf 6c3f efdd d13d 6d74 1e3d 3ff7 7cbc
000000f0: d7c5 75bc c528 b93f c373 553e a31c 543e
00000100: 7c39 a3be 585f 873e 2c15 643f e09c 533f
00000110: 155f 863e 1e08 2c3d aa64 163e d8ca 2ebf
00000120: f977 5fbd 9470 d93d 2649 b63d d8ad c9be
00000130: ffb2 3d3f 8312 b9be 7cb1 20bf 4323 0cbe
00000140: 153d 183f c8c1 e33a df55 6f3d 0232 a7bc
00000150: 52f1 053f 8403 1e3d e3e4 953e 1064 8a3e
00000160: 9a7b 413e ad71 673e 8533 d0be 1cc5 0c3e
00000170: 1cba 83bd 920f febd af57 ac3e 744d 263e
00000180: 9380 cebe d8c7 3fbf da88 14bf 9b4e 02be
00000190: 1b04 b73f a75d db3f 6993 1dbf 3ec0 1940
000001a0: ae9b 1d3f d526 debe a26b 06bf 0009 4abc
000001b0: c0b6 eabb 392b 0a3f dc61 453e cc58 933f
000001c0: 2334 f93d 07af 003f 4ac1 7f3f c79a ba3f
000001d0: db9e 823f 973d 2b3f 4c2e 493e d90c b23d
000001e0: 8bb0 c5be f6b5 e2be 2be3 a7bf a02c 3fbf
000001f0: ff04 80be 0b34 873f c4cd 2bbd 4a32 39be
00000200: 49ae bc3d b1e7 923e 67b7 aabe 5e07 463f
00000210: b028 28be 3ca4 3ebe a8c9 1ebf 7d31 fabb
00000220: 48bb cfbd 45c3 933d eaef c63c a080 0ebe
00000230: ecd2 2d3f 00bd 0d3e 2c41 1abe 3f45 c0be
00000240: 9449 2f3e d0ff 4fbf dd98 503e 3bdc dbbe
00000250: ecb1 b63d ae7e babd 8699 e3bd afba e73e
00000260: 1e03 3abe a4f4 bb3d 3a0b 50be 1fe5 093f
00000270: 7612 d0bd 9bc5 87bd a08c 14bd ae07 cb3e
00000280: 71ef df3c 1ab4 b3bd b47f c9be 95c7 8cbe
00000290: 4bbe 913f 12a9 803e 1e82 d5be a46a 0a3f
000002a0: ee78 2a3f 1b07 1dbe 8a1a cebe a46c 773d
000002b0: be10 eebd 1707 0d3e 90eb 61be 8845 d63e
000002c0: 9eee 2f3d 52f6 413f f3aa 163f e49a e93e
000002d0: 5d83 193f 78a5 233c 1bb8 643d b552 8c3e
000002e0: 071a 123e e9e2 f5bd fc59 56bf d571 a7bf
000002f0: e2c3 bebe 721a f43e 9132 13bc 4e95 99be
00000300: e8e8 72be 2d9b 1bbe 634b 513d d572 26be
00000310: bf8b 21be 5698 f3bd af11 a5be 747c 35bd
00000320: 9eec abbd 80ea 89be 3e2f a6bd 82bf b3bd
00000330: 3a97 eb3b add1 11be 3422 1a3d 3e98 18be
00000340: 25d6 10be 5870 28bd 8e44 b1bd 3668 623c
00000350: c0d2 11be 5e56 e7bd a29d a6bc 70a0 27bd
00000360: 020c 00be 778f 65bc 9e78 44bd fb98 0cbe
00000370: 0068 c03a 7c79 8cbe 2c9d 05be 2d9d cf3c
00000380: 2f37 8d3d e409 07be be74 21bc 89ef 42bd
00000390: 5d82 f5bd 432a f1bd 0190 9d3c 0daf a23d
000003a0: 5eca 7cbe 676a 2dbd 24a0 7b3d cad4 a03d
000003b0: caea d83d 2912 42bc c8b2 02be c028 d23c
000003c0: 72b8 ac3d 6247 d83c 5dbe 97bd 63a7 f9bd
000003d0: c0eb aebd 21eb 8e3d 39f8 113d 1bf8 bfbd
000003e0: 12fb 443c 7d6a 8ebe c48e a2bd bfc5 43bc
000003f0: 5c4a 57bd 9d18 7abd ce62 e0bd 4682 74be
0.22626211 0.0081572 0.1905584 1.0528657 0.022438806 0.11081295 0.030011417 0.18577479
0.18430977 0.37885064 0.17732519 0.29307833 0.13040426 0.092748836 -0.15534641 0.2553461
0.21151187 0.010624155 -0.05427225 -0.02776069 0.04601542 -0.0408348 -0.40171996 0.14600526
-0.079278916 0.24265338 0.39470226 0.14033629 0.036311492 -0.027953845 0.050434582 0.9159277
0.05902484 0.12313497 0.18212157 0.63573974 1.0765187 0.06784632 0.22519377 0.32395166
0.46851078 -0.0272693 0.5358467 0.0974661 -0.07457218 -0.08186252 -0.058114685 0.03800213
0.03853159 0.16365618 0.18729769 0.30764207 0.20078595 0.14015439 0.025527013 0.122562945
0.92455 0.102474086 0.03868525 -0.015439807 -0.015000782 1.4465567 0.20844941 0.20714049
-0.31879795 0.2643993 0.89094806 0.8266125 0.26244417 0.04199993 0.14686838 -0.68278265
-0.054557774 0.10617176 0.08900671 -0.39390445 0.7410125 -0.36146936 -0.6277082 -0.13685326
0.59468204 0.0017376477 0.058431502 -0.020409588 0.5232135 0.03857757 0.2927619 0.27029467
0.18894807 0.22601958 -0.40664306 0.13747066 -0.06431982 -0.124053136 0.33660647 0.16240484
-0.4033247 -0.7491431 -0.5802132 -0.12725298 1.4298128 1.7137955 -0.61553055 2.4023585
0.61565673 -0.43389 -0.52507985 -0.012331247 -0.007162899 0.539722 0.19275612 1.1511474
0.121681474 0.5026707 0.9990431 1.4578484 1.0204729 0.66890854 0.19646567 0.08693857
-0.38611254 -0.4427945 -1.3116201 -0.7467747 -0.25003812 1.0562757 -0.04194428 -0.1808559
0.0921293 0.28692392 -0.3334305 0.7735499 -0.16421771 -0.18617338 -0.62026453 -0.007635294
-0.10143143 0.07214979 0.024284322 -0.13916254 0.67899966 0.13841629 -0.15063924 -0.3755283
0.17117912 -0.81249714 0.20370813 -0.4294146 0.08920655 -0.091061935 -0.11113267 0.45259616
-0.18165252 0.09177521 -0.20316783 0.53865236 -0.10159771 -0.06629487 -0.036266923 0.39654297
0.027335854 -0.08774586 -0.39355242 -0.2749602 1.1386198 0.2512899 -0.41700834 0.5406897
0.66590774 -0.15334742 -0.40254623 0.060406342 -0.11624287 0.13772236 -0.22062516 0.41849923
0.042952172 0.7576648 0.588546 0.45625985 0.5996607 0.009988181 0.05583964 0.2740685
0.14267741 -0.1200617 -0.83731055 -1.3081614 -0.37258822 0.47676426 -0.008984224 -0.29996723
-0.23721659 -0.15195914 0.051097285 -0.16254742 -0.15775965 -0.1189429 -0.32240054 -0.04430814
-0.083947405 -0.26936722 -0.081144795 -0.087767616 0.0071896585 -0.14240141 0.037630275 -0.14901826
-0.1414419 -0.041122764 -0.08655654 0.013818791 -0.14240551 -0.1129577 -0.020338837 -0.04092449
-0.1250458 -0.014011255 -0.047966592 -0.13730232 0.0014679432 -0.27436435 -0.13048238 0.025343502
0.06895291 -0.13187367 -0.009854494 -0.04759172 -0.119877554 -0.11775639 0.019233705 0.079435445
-0.24686572 -0.0423378 0.06143202 0.07853086 0.105916575 -0.01184515 -0.12763512 0.025654197
0.08433618 0.026401225 -0.07409356 -0.121901296 -0.085410595 0.06978441 0.035637114 -0.09373494
0.01202275 -0.2781562 -0.07937387 -0.011949002 -0.05256115 -0.06105863 -0.109563455 -0.2387782
